assets/models/num_cnn.tflite (tflite, 116712 bytes, 6 tensors)

sequential/dense/BiasAdd/ReadVariableOp f4 [10]
0.014553368 0.15376598 0.042546168 -0.039309353 -0.03653878 0.019212743 -0.020462938 0.05289304
-0.11208939 -0.032966007
00000000: 4071 6e3c d474 1d3e e444 2e3d d802 21bd
00000010: b0a9 15bd 0b64 9d3c e4a1 a7bc 5fa6 583d
00000020: 1f8f e5bd 5d07 07bd

sequential/conv2d/BiasAdd/ReadVariableOp f4 [32]
0.01842715 0.1136824 -0.012263281 -0.032233004 0.056643832 0.06401973 -0.08088829 -0.012337718
-0.05714296 0.032404967 0.029671269 0.023561422 -0.08115881 -0.007885388 0.012734896 0.060721826
-0.15236406 -0.021529116 -0.024717234 -0.0128874695 -0.020981276 -0.0044064247 -0.027383523 -0.00395592
-0.08754922 -0.03400541 0.028288988 -0.019093825 -0.0076278797 0.02014749 -0.006990358 -0.05264692
00000000: 89f4 963c 51d2 e83d eeeb 48bc c106 04bd
00000010: 5d03 683d c71c 833d c3a8 a5bd 2424 4abc
00000020: bd0e 6abd 12bb 043d 2911 f33c e203 c13c
00000030: 9736 a6bd b731 01bc 06a6 503c 73b7 783d
00000040: 5305 1cbe d45d b0bc cc7b cabc f725 53bc
00000050: ede0 abbc c563 90bb 6953 e0bc aaa0 81bb
00000060: 014d b3bd 4249 0bbd 4fbe e73c a76a 9cbc
00000070: 4bf3 f9bb 590c a53c 5f0f e5bb 4ca4 57bd

sequential/conv2d_1/BiasAdd/ReadVariableOp f4 [64]
-0.031992976 -0.03234728 -0.09069641 0.020583747 -0.031082982 -0.046637733 0.010209095 -0.08248526
-0.03676406 -0.018674603 0.013233598 -0.013181305 -0.0068365475 0.007422003 -0.036957376 -0.04122794
0.0051005953 -0.02886246 -0.030301271 -0.009134947 -0.03622112 -0.052126814 -3.7652004e-05 0.020557256
-0.024988167 -0.046667963 -0.03748067 -0.063124575 -0.033565663 -0.0459853 -0.033661187 0.01204205
0.017529696 -0.03269351 -0.07597888 -0.087055504 -0.025831137 -0.027138675 -0.031119483 -0.012116024
-0.04572817 -0.009765757 -0.031608257 -0.03591668 -0.039434753 0.017302083 -0.016244378 -0.02552575
-0.04665522 0.032545805 0.021096053 -0.010127898 0.024543267 0.0069334134 0.0025430622 -0.02881551
0.009587248 0.000587735 -0.0005193262 -0.002208737 -0.06313832 -0.029297844 -0.08210435 -0.016531708
00000000: 110b 03bd 957e 04bd 0abf b9bd 3f9f a83c
00000010: bda1 febc 3507 3fbd 0c44 273c 08ee a8bd
00000020: e995 16bd 7bfb 98bc bcd1 583c 66f6 57bc
00000030: 1e05 e0bb 4634 f33b 9e60 17bd a1de 28bd
00000040: e522 a73b f770 ecbc 5f3a f8bc bfaa 15bc
00000050: 995c 14bd ed82 55bd 88ec 1db8 b167 a83c
00000060: fcb3 ccbc e826 3fbd 5585 19bd 7547 81bd
00000070: 267c 09bd 155b 3cbd 50e0 09bd 054c 453c
00000080: 709a 8f3c a1e9 05bd d19a 9bbd 284a b2bd
00000090: d29b d3bc ed51 debc 49ee febc 4a82 46bc
000000a0: 764d 3bbd 8e00 20bc a977 01bd 5e1d 13bd
000000b0: 5686 21bd 19bd 8d3c ee12 85bc 611b d1bc
000000c0: 8b19 3fbd c04e 053d a1d1 ac3c 7cef 25bc
000000d0: f60e c93c b031 e33b 81a9 263b 810e ecbc
000000e0: d513 1d3c 3a12 1a3a 6423 08ba 75c0 10bb
000000f0: aa4e 81bd 0802 f0bc 5326 a8bd 816d 87bc

sequential/conv2d/Conv2D f4 [32, 3, 3, 1]
-0.08384139 -0.32769018 -0.21054436 0.030731356 0.058320846 -0.06924856 0.29456842 0.04872906
0.21033195 -0.05228369 -0.38623056 -0.34272563 -0.44802898 -0.20610286 0.06312985 -0.19603696
0.13705905 0.2533537 0.059011605 0.27799532 0.22166719 -0.17870498 -0.031839587 0.3180706
-0.3414737 -0.2870889 0.0027786496 0.19056334 0.0041019185 -0.29849038 0.13863373 0.19054785
-0.15308951 -0.049487382 -0.014649239 0.0061438056 -0.15768445 -0.16724795 0.21168406 0.09161008
-0.33789986 -0.1124126 0.28608903 0.08309318 -0.12106912 0.2770014 0.23294793 -0.21098363
0.1482395 -0.08555543 -0.4313242 0.19936123 0.02594366 -0.30526355 0.15695886 0.20343892
-0.077660635 -0.053790715 0.07438525 -0.12403242 -0.18052937 0.014314462 0.08052727 0.28012446
0.1101649 -0.1148646 0.14842862 0.057664223 -0.1468845 -0.10704448 0.030281028 -0.18414891
0.09724837 -0.23671392 0.115266725 0.12695609 -0.24493378 0.056518547 0.08157079 -0.16560197
0.020746615 0.25867566 0.20733574 0.051260028 0.13491657 -0.05234525 0.030348742 -0.20462696
-0.2663717 -0.25201476 0.09300821 0.17636436 0.24908163 -0.01742665 0.06612508 -0.057162695
-0.004332879 -0.30935666 -0.15065108 -0.31500188 -0.0743482 0.20282233 -0.13001044 -0.044441126
0.22643898 -0.10591403 -0.033784375 0.24123263 -0.10216301 0.044698305 0.10997966 -0.047090024
-0.1323009 0.085620284 0.12947632 0.084658414 -0.0035661529 -0.3806332 0.023000088 0.15256214
-0.1363359 0.025567599 -0.037885644 -0.13387066 0.16379821 0.11668141 -0.112684205 -0.018782781
0.07587087 0.013098986 0.18420745 0.21165715 -0.18618414 -0.0811796 0.103769936 0.26891318
0.17804562 0.1953355 0.03926565 0.012927913 -0.007597243 -0.3410914 -0.31509268 -0.21735871
0.08910262 0.0749093 0.095998645 0.09299244 0.12121746 0.102663085 -0.04054834 -0.022063704
-0.000118756776 0.14143825 -0.09489032 -0.3748873 0.30943158 0.12373723 -0.25232294 0.13202979
0.05977967 0.18456261 0.10052687 -0.1934488 -0.26614338 -0.016474245 -0.05954731 -0.08727722
0.29088417 0.13803872 0.18548723 0.042449746 0.11387482 -0.030070651 -0.03837513 0.21308737
-0.13475285 -0.12588304 -0.040769093 -0.011899026 -0.04071417 0.10549658 -0.22054668 -0.03592357
-0.11614274 -0.21797746 0.36763027 -0.04701631 0.14876173 0.009646656 0.15745398 0.18879865
0.3004547 0.24247049 -0.16578478 0.06608707 -0.2892923 -0.36772946 -0.30230507 -0.062026076
-0.016317206 -0.03281561 0.10851745 0.17013599 0.19378345 0.057179194 -0.07713761 -0.08060641
-0.026475953 0.3730879 -0.20795934 0.1255273 -0.017442323 0.17454919 -0.11611723 -0.025846342
-0.0737727 0.010144215 0.10856657 -0.16299714 0.078753605 -0.056730088 0.09162887 -0.008951893
0.013328919 0.012600643 0.002431424 0.069567196 0.14085878 0.221667 0.13893498 -0.007562267
-0.29894385 -0.16233037 0.11825084 0.16479994 -0.10076266 0.22866859 -0.0031484216 -0.3105079
0.14807566 -0.12595062 0.01265428 -0.013664419 0.060539037 -0.24997863 0.1578856 0.14626087
0.029339405 -0.25301093 -0.11102694 0.23642479 0.29292297 -0.16893794 -0.013861741 -0.013345499
00000000: 09b5 abbd 02c7 a7be f198 57be 53c0 fb3c
00000010: d7e1 6e3d 30d2 8dbd acd1 963e 1f98 473d
00000020: 4261 573e 6c27 56bd 03c0 c5be bc79 afbe
00000030: 0e64 e5be a10c 53be 394a 813d eabd 48be
00000040: 3559 0c3e 93b7 813e 27b6 713d 6755 8e3e
00000050: b9fc 623e 70fe 36be 3a6a 02bd 26da a23e
00000060: a4d5 aebe 51fd 92be 011a 363b 0923 433e
00000070: 6369 863b bbd3 98be 00f6 0d3e fa1e 433e
00000080: 7fc3 1cbe 48b3 4abd 5d03 70bc fa51 c93b
00000090: 0878 21be 0c43 2bbe b5c3 583e 119e bb3d
000000a0: 3601 adbe 9438 e6bd 437a 923e c22c aa3d
000000b0: 16f3 f7bd 21d3 8d3e e789 6e3e 180c 58be
000000c0: 18cc 173e af37 afbd 87d6 dcbe 5a25 4c3e
000000d0: cc87 d43c 814b 9cbe d3b9 203e 4b52 503e
000000e0: 8a0c 9fbd a753 5cbd 4b57 983d b604 febd
000000f0: b1dc 38be 3587 6a3c 7beb a43d 796c 8f3e
00000100: 239e e13d 223e ebbd acfd 173e 5231 6c3d
00000110: e468 16be 233a dbbd eb0f f83c 8891 3cbe
00000120: 272a c73d 2265 72be f610 ec3d c700 023e
00000130: eccf 7abe fe7f 673d 960e a73d 9093 29be
00000140: cef4 a93c 2371 843e d24f 543e 09f6 513d
00000150: 9227 0a3e f967 56bd ed9d f83c bb89 51be
00000160: df61 88be 1408 81be 177b be3d dc98 343e
00000170: 410f 7f3e 55c2 8ebc 966c 873d 6e23 6abd
00000180: d3fa 8dbb ff63 9ebe 4744 1abe ed47 a1be
00000190: de43 98bd a8b0 4f3e 7521 05be e607 36bd
000001a0: 9fdf 673e 74e9 d8bd 7c61 0abd b005 773e
000001b0: d73a d1bd 9215 373d 043d e13d 78e1 40bd
000001c0: e379 07be b059 af3d 7195 043e 6461 ad3d
000001d0: 1eb6 69bb 5be2 c2be ae6a bc3c 4039 1c3e
000001e0: a39b 0bbe 2473 d13c fa2d 1bbd 6415 09be
000001f0: b8ba 273e aaf6 ee3d fac6 e6bd 59de 99bc
00000200: 3062 9b3d 219d 563c e1a0 3c3e a7bc 583e
00000210: 0ea7 3ebe 7d41 a6bd 5585 d43d fdae 893e
00000220: 9751 363e 0806 483e 05d5 203d 99cf 533c
00000230: 4bf2 f8bb 88a3 aebe d453 a1be 4893 5ebe
00000240: 6f7b b63d 0c6a 993d f09a c43d d272 be3d
00000250: dc40 f83d 0641 d23d 0416 26bd f1be b4bc
00000260: 0f0d f9b8 30d5 103e db55 c2bd 3af1 bfbe
00000270: d16d 9e3e f269 fd3d 7930 81be d132 073e
00000280: 87db 743d fbfd 3c3e 08e1 cd3d 7117 46be
00000290: f243 88be fff4 86bc e1e7 73bd 66be b2bd
000002a0: c5ee 943e 065a 0d3e 5df0 3d3e c9df 2d3d
000002b0: 3437 e93d ba56 f6bc 3e2f 1dbd 9333 5a3e
000002c0: a7fc 09be 7ce7 00be 7efd 26bd 22f4 42bc
000002d0: e7c3 26bd 970e d83d fdd6 61be 9824 13bd
000002e0: 3fdc edbd 7c35 5fbe 093a bc3e 2d94 40bd
000002f0: ff54 183e 020d 1e3c 9e3b 213e 6f54 413e
00000300: 33d5 993e 2f4a 783e 7cc3 29be a858 873d
00000310: 1f1e 94be 0947 bcbe bbc7 9abe 0e0f 7ebd
00000320: a9ab 85bc a969 06bd 663e de3d 2138 2e3e
00000330: 2b6f 463e bb34 6a3d 53fa 9dbd f914 a5bd
00000340: 19e4 d8bc 6105 bf3e 4bf3 54be 3b8a 003e
00000350: 34e3 8ebc 06bd 323e dfce edbd b5bb d3bc
00000360: 2416 97bd ec33 263c 2658 de3d b9e8 26be
00000370: 9249 a13d cf5d 68bd eba7 bb3d f6aa 12bc
00000380: 8a61 5a3c ed72 4e3c 8758 1f3b 3f79 8e3d
00000390: 493d 103e adfc 623e f944 0e3e e5cc f7bb
000003a0: 2b0f 99be ef39 26be 7f2d f23d 51c1 283e
000003b0: a75c cebd 1928 6a3e c055 4ebb e4fa 9ebe
000003c0: 25a1 173e 33f9 00be e653 4f3c bae0 5fbc
000003d0: c8f7 773d 66fa 7fbe c3ac 213e 69c5 153e
000003e0: 3159 f03c a68a 81be 1862 e3bd 5719 723e
000003f0: 00fa 953e 11fe 2cbe 5b1c 63bc 14a7 5abc

sequential/conv2d_1/Conv2D i1 [64, 3, 3, 32]
-16 51 3 -63 -35 -37 -35 -28
19 -54 -47 18 -12 -21 5 -41
-33 -48 -30 -57 -17 -14 -17 4
-38 -22 -23 -19 35 -17 -52 -9
-9 37 -15 -17 -50 -6 -2 11
-10 -46 0 6 4 43 1 -30
-11 -13 -49 -14 -29 -11 -14 -22
-33 -47 -10 -51 42 -18 28 -4
-6 -43 -57 7 46 56 -36 -25
-7 40 30 -71 -32 -68 -48 -16
3 -8 -39 6 38 33 0 12
-1 2 16 -56 -13 3 -6 23
1 72 27 -73 -30 -68 -59 -71
22 -81 1 60 -12 -7 23 -58
-39 -75 -41 -52 -54 -93 -52 13
-24 -8 -36 41 73 1 8 -21
-34 50 -33 -3 -41 -56 -11 -19
-16 -75 0 -34 -12 67 -12 -74
-12 -40 -39 8 -26 -20 -9 -15
-26 -42 -57 -7 45 8 13 30
19 -63 -93 -3 62 59 -9 -27
2 6 -2 -94 -34 -74 -87 4
-29 42 21 -21 52 -8 -1 -57
-10 -43 38 -13 -58 12 -71 1
-56 -1 41 -45 30 1 -73 -48
38 11 11 42 -25 -17 29 20
-28 -87 -69 -63 -46 -62 -20 23
-4 -18 -37 -39 42 -2 20 -52
-15 -31 14 -16 -40 -22 22 -9
-43 -41 -18 40 -44 29 16 -26
-44 -18 -39 28 -19 -30 4 8
-6 -12 -41 24 7 -31 15 2
00000000: f033 03c1 dddb dde4 13ca d112 f4eb 05d7
00000010: dfd0 e2c7 eff2 ef04 daea e9ed 23ef ccf7
00000020: f725 f1ef cefa fe0b f6d2 0006 042b 01e2
00000030: f5f3 cff2 e3f5 f2ea dfd1 f6cd 2aee 1cfc
00000040: fad5 c707 2e38 dce7 f928 1eb9 e0bc d0f0
00000050: 03f8 d906 2621 000c ff02 10c8 f303 fa17
00000060: 0148 1bb7 e2bc c5b9 16af 013c f4f9 17c6
00000070: d9b5 d7cc caa3 cc0d e8f8 dc29 4901 08eb
00000080: de32 dffd d7c8 f5ed f0b5 00de f443 f4b6
00000090: f4d8 d908 e6ec f7f1 e6d6 c7f9 2d08 0d1e
000000a0: 13c1 a3fd 3e3b f7e5 0206 fea2 deb6 a904
000000b0: e32a 15eb 34f8 ffc7 f6d5 26f3 c60c b901
000000c0: c8ff 29d3 1e01 b7d0 260b 0b2a e7ef 1d14
000000d0: e4a9 bbc1 d2c2 ec17 fcee dbd9 2afe 14cc
000000e0: f1e1 0ef0 d8ea 16f7 d5d7 ee28 d41d 10e6
000000f0: d4ee d91c ede2 0408 faf4 d718 07e1 0f02

sequential/dense/MatMul i1 [10, 9216] scale=0.0042366553 zero_point=0
0.10167973 -0.038129896 0.008473311 0.11862635 -0.07202314 0.029656587 -0.13980962 -0.0042366553
0.008473311 -0.016946621 0.050839864 0.0042366553 0.0042366553 0.025419932 -0.016946621 -0.008473311
-0.033893242 -0.012709966 0.09320642 -0.13557297 0.0 -0.012709966 0.012709966 -0.033893242
-0.084733106 0.0 -0.012709966 0.0042366553 0.042366553 0.016946621 0.008473311 0.08049645
-0.012709966 0.0042366553 0.0 -0.029656587 0.016946621 0.008473311 0.0042366553 -0.021183277
-0.08896976 0.0 0.008473311 -0.033893242 -0.016946621 0.012709966 0.021183277 -0.008473311
-0.04660321 -0.122863 0.059313174 -0.050839864 0.033893242 -0.059313174 -0.07625979 -0.016946621
-0.09320642 -0.016946621 0.0 0.038129896 0.025419932 0.025419932 -0.012709966 -0.029656587
-0.17793952 0.042366553 0.0042366553 0.033893242 -0.097443074 -0.016946621 -0.097443074 -0.029656587
-0.008473311 -0.033893242 -0.025419932 -0.008473311 -0.033893242 -0.13557297 0.025419932 0.016946621
-0.042366553 -0.029656587 0.04660321 -0.059313174 -0.0042366553 -0.050839864 0.0 -0.04660321
-0.059313174 0.0 -0.042366553 0.008473311 -0.10167973 0.033893242 -0.025419932 -0.08896976
-0.029656587 -0.08896976 -0.033893242 -0.012709966 -0.025419932 -0.025419932 -0.059313174 -0.008473311
0.029656587 -0.050839864 -0.038129896 -0.059313174 -0.021183277 0.008473311 0.06354983 -0.14828293
-0.016946621 -0.025419932 -0.021183277 -0.042366553 0.0042366553 0.038129896 -0.016946621 -0.008473311
0.038129896 -0.110153034 -0.038129896 -0.07202314 -0.021183277 -0.025419932 -0.012709966 -0.033893242
-0.029656587 0.038129896 -0.008473311 0.097443074 0.012709966 -0.016946621 0.016946621 -0.0042366553
-0.008473311 -0.033893242 -0.021183277 -0.025419932 -0.09320642 -0.10591638 -0.021183277 -0.050839864
-0.08049645 -0.029656587 0.025419932 0.042366553 -0.042366553 -0.008473311 -0.029656587 -0.029656587
-0.09320642 0.0042366553 -0.059313174 0.0042366553 -0.15251958 0.07625979 0.055076517 -0.059313174
-0.021183277 0.021183277 -0.008473311 0.0042366553 -0.029656587 -0.021183277 -0.042366553 -0.008473311
0.067786485 -0.055076517 -0.029656587 0.029656587 -0.050839864 -0.050839864 0.16522956 -0.04660321
-0.050839864 -0.042366553 -0.042366553 -0.050839864 -0.033893242 0.07202314 -0.18641284 -0.033893242
0.008473311 -0.10167973 -0.012709966 -0.059313174 -0.016946621 -0.008473311 -0.033893242 -0.016946621
-0.050839864 0.012709966 -0.021183277 0.09320642 0.0 0.008473311 -0.12709966 0.008473311
-0.025419932 -0.059313174 -0.097443074 -0.0042366553 -0.12709966 -0.09320642 -0.021183277 -0.04660321
0.008473311 -0.038129896 -0.016946621 -0.06354983 -0.025419932 -0.042366553 -0.025419932 -0.029656587
-0.097443074 -0.07625979 0.08896976 0.038129896 0.059313174 0.021183277 0.04660321 -0.029656587
-0.04660321 0.08049645 -0.04660321 -0.012709966 -0.038129896 0.008473311 -0.008473311 -0.038129896
0.07625979 -0.10167973 0.012709966 -0.038129896 -0.012709966 0.097443074 0.07625979 -0.16946621
-0.050839864 -0.21606942 0.012709966 0.016946621 0.06354983 -0.04660321 -0.15251958 -0.021183277
0.0 -0.122863 -0.038129896 -0.050839864 0.008473311 0.012709966 -0.042366553 -0.033893242
00000000: 18f7 021c ef07 dfff 02fc 0c01 0106 fcfe
00000010: f8fd 16e0 00fd 03f8 ec00 fd01 0a04 0213
00000020: fd01 00f9 0402 01fb eb00 02f8 fc03 05fe
00000030: f5e3 0ef4 08f2 eefc eafc 0009 0606 fdf9
00000040: d60a 0108 e9fc e9f9 fef8 fafe f8e0 0604
00000050: f6f9 0bf2 fff4 00f5 f200 f602 e808 faeb
00000060: f9eb f8fd fafa f2fe 07f4 f7f2 fb02 0fdd
00000070: fcfa fbf6 0109 fcfe 09e6 f7ef fbfa fdf8
00000080: f909 fe17 03fc 04ff fef8 fbfa eae7 fbf4
00000090: edf9 060a f6fe f9f9 ea01 f201 dc12 0df2
000000a0: fb05 fe01 f9fb f6fe 10f3 f907 f4f4 27f5
000000b0: f4f6 f6f4 f811 d4f8 02e8 fdf2 fcfe f8fc
000000c0: f403 fb16 0002 e202 faf2 e9ff e2ea fbf5
000000d0: 02f7 fcf1 faf6 faf9 e9ee 1509 0e05 0bf9
000000e0: f513 f5fd f702 fef7 12e8 03f7 fd17 12d8
000000f0: f4cd 0304 0ff5 dcfb 00e3 f7f4 0203 f6f8
